data.pth (torch, 4823 bytes, 6 tensors)

l1.weight f4 [8, 48]
0	0x3e0416a2	0.12899259
1	0xbe0ff2f9	-0.1405753
2	0x3d272fc4	0.040817037
3	0x3f100f54	0.5627339
4	0xbe6d549e	-0.2317681
5	0x3f1c1b1d	0.6097887
6	0x3f147f6f	0.5800695
7	0x3becbcdd	0.0072246627
8	0x3ef3168c	0.4747814
9	0x3f12c330	0.5732908
10	0x3ed24918	0.4107139
11	0xbe3cb5cc	-0.18428725
12	0x3f1d1d57	0.61372894
13	0xbe27cdf6	-0.16387162
14	0xbb3c85f4	-0.0028766366
15	0x3f0eae40	0.55734634
16	0x3ed24712	0.41069847
17	0xbe80d7a8	-0.25164533
18	0xbec303e4	-0.38088906
19	0xbe92c695	-0.2866713
20	0x3f125ee5	0.5717605
21	0xbeed00ac	-0.46289575
22	0x3db1193f	0.086473934
23	0xbe110308	-0.14161313
24	0x3f0be841	0.54651266
25	0x3ef00663	0.46879873
26	0x3dd733d6	0.10507934
27	0x3f119a6f	0.5687627
28	0x3ed61cd3	0.41818866
29	0x3ecfd12b	0.4058927
30	0x3ed8ef5d	0.4237012
31	0x3f2a4df9	0.66525227
32	0x3d6664c6	0.05624845
33	0x3f02cd28	0.51094294
34	0x3edc07be	0.42974657
35	0xbf4c3740	-0.79771805
36	0xbe3e8bb9	-0.18607987
37	0x3dda83fd	0.10669706
38	0xbd64b32c	-0.055834934
39	0x3cf3c20c	0.029755615
40	0x3e698509	0.22804655
41	0xbd825037	-0.06362956
42	0x3f13d6b8	0.5774951
43	0x3edc306d	0.43005696
44	0x3ecc1db5	0.39866415
45	0xbd1aaec2	-0.03776432
46	0x3eef25bb	0.46708474
47	0x3ee30374	0.44338572
48	0xbdfe8f02	-0.1242962
49	0x3ead1322	0.3380366
50	0xbad29ee9	-0.0016069087
51	0xbdd11706	-0.102094695
52	0x3e0551fb	0.13019554
53	0xbe9f2370	-0.31081724
54	0xbed42a44	-0.41438496
55	0xbde18f1e	-0.110136256
56	0xbde762d3	-0.11298146
57	0x3d20605f	0.039154407
58	0x3d065df1	0.032804433
59	0x3ea2e64b	0.31816325
60	0x3ea0e817	0.3142707
61	0xbcb90ac5	-0.022588143
62	0x3e781c02	0.24229434
63	0xbed40806	-0.4141237
64	0xbe195e80	-0.14977455
65	0x3ed356d0	0.4127717
66	0x3ec06634	0.37577975
67	0x3f0ff610	0.56234837
68	0xbc6a3a08	-0.014296062
69	0xbe0171d8	-0.12641084
70	0xbd84b6da	-0.06480189
71	0x3e203085	0.15643509
72	0xbdece868	-0.115677655
73	0xbd814c25	-0.063133515
74	0x3cd2df50	0.02574125
75	0xbe48f46e	-0.19624493
76	0xbe3e10cf	-0.185611
77	0x3dcb9526	0.09940557
78	0x3d1bf2dd	0.03807341
79	0x3dfca48d	0.12336073
80	0xbec81648	-0.390795
81	0xbe5c3dcc	-0.21507949
82	0xbe251411	-0.16120936
83	0x3eee1524	0.46500504
84	0x3e81700f	0.25280806
85	0x3e14d7cd	0.14535446
86	0xbe5a6161	-0.2132621
87	0x3d80efdc	0.062957495
88	0x3fae4c20	1.3616982
89	0xbce8d79f	-0.028423129
90	0xbe4e8c6a	-0.20170751
91	0xbdb9b4b1	-0.09067667
92	0xbe83b75b	-0.25725827
93	0xbd56621f	-0.05233967
94	0xbe0b0fa9	-0.13580193
95	0x3e5a6f8b	0.21331613
96	0xbdd980c2	-0.10620262
97	0xbdce1057	-0.1006171
98	0x3e0827fa	0.132965
99	0xbe5744f5	-0.21022399
100	0xbd97fb58	-0.07420987
101	0x3f1785bb	0.5918843
102	0xbe3829cf	-0.17984699
103	0xbd8defad	-0.0693048
104	0x3c0f37e8	0.008741356
105	0xbec01761	-0.37517837
106	0xbe64ab91	-0.22331072
107	0xbd714c82	-0.058910854
108	0x3cd0c4ae	0.02548441
109	0xbcbf5835	-0.02335749
110	0xbdedb379	-0.11606497
111	0xbe338dab	-0.17534511
112	0xbe24dd44	-0.16100031
113	0xbe3372b2	-0.17524222
114	0x3cbbdc7b	0.022932282
115	0xbe3294f7	-0.17439638
116	0x3f124137	0.5713076
117	0xbe1370b9	-0.14398469
118	0x3d81805a	0.06323309
119	0xbdaf1cd0	-0.085504174
120	0xbea5e97b	-0.32404694
121	0xbe9792c7	-0.2960417
122	0xbe069f7c	-0.13146776
123	0xbe583bf9	-0.21116628
124	0xbea88f01	-0.32921603
125	0xbddf75cb	-0.10911139
126	0xbeec84ea	-0.46195155
127	0x3f749544	0.9554026
128	0xbf24b795	-0.64342624
129	0xbe4c3cc4	-0.19945055
130	0xbe749728	-0.23885787
131	0x3f09ea53	0.53873175
132	0xbe068556	-0.13136801
133	0xbded5b33	-0.115896605
134	0xbe2f0eda	-0.17095509
135	0xbbab0b20	-0.005219832
136	0x3f321054	0.69556165
137	0x3df613f4	0.120155245
138	0x3e42a952	0.19009903
139	0x3f070c3f	0.5275306
140	0xbcfbf2a9	-0.030755358
141	0xbc725614	-0.01479103
142	0x3ecc9e61	0.39964584
143	0x3f1fd5d5	0.62435657
144	0x3f1cbec7	0.61228603
145	0x3e6eb4b6	0.23311123
146	0x3f3cdfca	0.73778975
147	0xbf09b45e	-0.53790843
148	0x3ee8b701	0.4545212
149	0x3dec7627	0.11545973
150	0xbf39fd95	-0.7265256
151	0x3f403658	0.7508292
152	0xbebe8f93	-0.37218913
153	0xbf0e9887	-0.5570149
154	0xbebb776f	-0.36614558
155	0x3edf686c	0.43634355
156	0xbe09a2c7	-0.13441001
157	0x3f47a3fa	0.77984583
158	0x3edbc9f3	0.42927513
159	0xbf357754	-0.70885205
160	0xbd2015cb	-0.039083283
161	0x3f52be48	0.82321596
162	0x3e6bd7ff	0.23031615
163	0x3f3517f1	0.70739657
164	0xbeeafa4b	-0.45894083
165	0x3f739d79	0.9516216
166	0x3f1a0081	0.6015702
167	0x3f242238	0.64114714
168	0xbdb3aef9	-0.08773608
169	0xbe9139bc	-0.2836436
170	0x3eed27c4	0.463194
171	0xbea47c4d	-0.32126084
172	0x3f49e4b7	0.78864616
173	0xbce00c6e	-0.027349677
174	0xbf0d56a3	-0.5521032
175	0xbe89dd95	-0.26926866
176	0x3f31acd0	0.69404316
177	0xbe81ead0	-0.2537446
178	0xbdf87b70	-0.12132919
179	0x3f1bd7f8	0.6087642
180	0x3ed7d1b0	0.42152166
181	0x3ef47c49	0.47751072
182	0x3f686b1e	0.9078845
183	0x3f18bc3f	0.5966224
184	0xbf412093	-0.7544033
185	0x3f2ead61	0.68233305
186	0x3aff3873	0.0019471779
187	0xbeef93c7	-0.46792433
188	0x3e04206d	0.12902994
189	0x3f65aafd	0.8971403
190	0x3e750ac2	0.23929885
191	0xbe5ddbab	-0.21665828
192	0xbd08a420	-0.033359647
193	0x3ee5330f	0.44765517
194	0x3ddc294c	0.10750064
195	0x3ed58f17	0.4171073
196	0xbe865907	-0.26239797
197	0x3e8c0236	0.27345437
198	0x3e2bf9c1	0.16794492
199	0x3d6d1d24	0.05788912
200	0x3ecb3b9d	0.3969392
201	0x3eeddb53	0.46456394
202	0x3eca13e8	0.39468312
203	0xbe4f9a8e	-0.20273802
204	0x3ef36cbe	0.475439
205	0xbd913ac7	-0.07091289
206	0xbe04196d	-0.12900324
207	0x3e6daa5f	0.23209523
208	0x3f049d1a	0.5180222
209	0xbea9f5c3	-0.33195314
210	0x3f0a4c00	0.54022217
211	0xbe289e5a	-0.16466656
212	0xbdcac247	-0.09900337
213	0xbf330107	-0.6992344
214	0x3a83f375	0.0010067063
215	0xbe75bb4a	-0.23997226
216	0x3ee2059c	0.44144905
217	0xbd093ffa	-0.03350828
218	0x3e17569a	0.1477913
219	0x3f1c543d	0.6106604
220	0x3f3cac7d	0.73700696
221	0x3ea96600	0.33085632
222	0x3f1cc67c	0.61240363
223	0xbdccf1bd	-0.100070454
224	0x3f3ebad4	0.7450383
225	0xbca19748	-0.019725457
226	0x3ec3c6c8	0.38237596
227	0x3e9f1664	0.3107177
228	0x3ed10343	0.408228
229	0x3e109b92	0.14121845
230	0xbe0f81cf	-0.14014362
231	0x3e33d81d	0.1756291
232	0xbf6dd963	-0.9290983
233	0x3e2e13de	0.16999766
234	0x3f1eae98	0.6198516
235	0xbc46bf65	-0.012130593
236	0x3eb392f2	0.35073048
237	0x3d388828	0.045051724
238	0x3eaa7c6b	0.33298048
239	0xbe858fb8	-0.2608621
240	0xbe72392b	-0.2365462
241	0x3ed0b466	0.40762633
242	0xbedd2642	-0.4319325
243	0xbeaad9f6	-0.33369416
244	0xbe0f2854	-0.13980228
245	0x3f09e2c7	0.5386166
246	0xbebac816	-0.36480778
247	0xbef0303e	-0.46911806
248	0xbe3f001d	-0.18652387
249	0xbee8d3d5	-0.45474115
250	0xbe94508f	-0.2896771
251	0xbd12e4ef	-0.03586286
252	0x3ead056a	0.33793193
253	0x3dcfdaa3	0.101491235
254	0xbdc7fb87	-0.09764772
255	0xbeba8f32	-0.36437374

l1.bias f4 [8]
0	0x3f350d74	0.7072365
1	0x3ed3fceb	0.414039
2	0x3dc3c9b3	0.095599554
3	0x3f4118eb	0.75428647
4	0x3edb82e3	0.42873296
5	0x3eba7efb	0.36425003
6	0x3f5e880f	0.8692636
7	0x3f31004b	0.6914107

l2.weight f4 [8, 8]
0	0x3f1f2ee4	0.62180924
1	0xbf6fa5df	-0.93612474
2	0xbe546ed1	-0.20745398
3	0x3e81650c	0.25272405
4	0x3f916680	1.1359406
5	0x3f832273	1.0244888
6	0xbf489ed5	-0.7836736
7	0x3f90acfd	1.1302792
8	0x3f520363	0.8203642
9	0x3f9c05ee	1.218931
10	0x3f879379	1.059188
11	0xbf75240d	-0.95758134
12	0xbf3d6b7b	-0.7399213
13	0x3f43022e	0.761752
14	0x3f78366c	0.9695804
15	0xbf8d4b38	-1.103858
16	0x3ead85f0	0.3389125
17	0xbeb68711	-0.35649922
18	0xbf092fae	-0.5358838
19	0x3f975cbd	1.1825176
20	0xbe782f4c	-0.24236792
21	0xbf4f118a	-0.8088614
22	0x3f837c4d	1.0272309
23	0x3d424e8c	0.04743819
24	0x3f045b3f	0.5170173
25	0x3eba451f	0.3638086
26	0xbf4238bf	-0.7586784
27	0xbf8f6a3b	-1.1204294
28	0x3f2bb1c5	0.6706813
29	0xbfac3c16	-1.3455837
30	0x3f517259	0.81815106
31	0x3ed85311	0.42250875
32	0xbed55d62	-0.41672808
33	0x3eabf283	0.3358346
34	0xbf0b1806	-0.5433353
35	0x3fc30a34	1.5237489
36	0x3f3fdddd	0.7494791
37	0x3f35e223	0.7104818
38	0xbe7024bc	-0.23451513
39	0x3fafcad8	1.3733778
40	0xbf18174a	-0.59410536
41	0xbeab1852	-0.33416992
42	0x3e84e963	0.2595931
43	0x3f313b8b	0.6923148
44	0x3e88d380	0.26723862
45	0xbebcbb36	-0.3686158
46	0xbf5c5ee3	-0.86082286
47	0x3f0b686c	0.5445621
48	0x3fab0731	1.336157
49	0xbfa89124	-1.3169293
50	0xbf057fd7	-0.52148193
51	0xbee7d324	-0.45278275
52	0x3f9e9f7f	1.2392424
53	0x3d5fb22a	0.05461327
54	0x3f0a0b9f	0.5392398
55	0xbe12ca0e	-0.1433489
56	0x3f537c93	0.8261196
57	0x3ebffa70	0.37495756
58	0x3ef2a26d	0.47389546
59	0xbe3aaae4	-0.18229252
60	0xbec9c2f7	-0.3940656
61	0xbe673988	-0.2258054
62	0x3f87ca37	1.0608586
63	0xbc3b2eda	-0.0114247445

l2.bias f4 [8]
0	0xbe8619b9	-0.261915
1	0x3e3834a0	0.17988825
2	0x3ebcfa0d	0.36909524
3	0x3f50233b	0.8130376
4	0x3f3f3512	0.74690354
5	0x3c8993e1	0.016794147
6	0x3f0b5f84	0.5444262
7	0x3f2afa4d	0.6678818

l3.weight f4 [9, 8]
0	0xbfc7273a	-1.5558846
1	0xbf0c5c1e	-0.5482806
2	0x3f0f2fd6	0.55932367
3	0x3f2097ec	0.62731814
4	0xbf3725fb	-0.7154233
5	0xbf6b6691	-0.9195338
6	0x3f47eacd	0.7809265
7	0x3e109900	0.14120865
8	0xbf806212	-1.0029929
9	0xbf61b803	-0.88171405
10	0x3f3f3768	0.7469392
11	0xbede444a	-0.43411475
12	0x3f376730	0.71641827
13	0xbfd82a4c	-1.6887908
14	0xbf4ddb7b	-0.80413026
15	0x3ee5b9b4	0.44868243
16	0x3f175e3b	0.5912816
17	0x3eb0fd3b	0.345682
18	0xbf8c126a	-1.094312
19	0xbf8adcdf	-1.0848655
20	0xbf5664f7	-0.8374781
21	0xbf715a29	-0.942782
22	0x3ee34d60	0.4439497
23	0xbe21897d	-0.15775104
24	0x3f23f779	0.6404949
25	0xbf773f4e	-0.9658097
26	0xbfa56823	-1.2922405
27	0xbf8e438f	-1.1114367
28	0x3e813cfc	0.2524184
29	0xbfc3428f	-1.5254687
30	0x3f03d9fc	0.5150449
31	0xbf84b907	-1.0368966
32	0xbfb00793	-1.3752311
33	0x3f36767d	0.7127455
34	0xbf47ef26	-0.78099287
35	0xbfc4598b	-1.5339826
36	0xbf600246	-0.8750347
37	0xbf466e7c	-0.77512336
38	0xbeb99379	-0.36245325
39	0x3f1267fd	0.57189924
40	0x3ec49881	0.383976
41	0xbf8e5798	-1.1120481
42	0xbfa6a8e3	-1.302029
43	0x3f4c85f2	0.79891884
44	0xbebb331a	-0.36562425
45	0xbf7705fd	-0.9649351
46	0x3e9b4e3b	0.30333123
47	0x3e464645	0.19362743
48	0x3d2cb93c	0.04216884
49	0xbf2681b6	-0.65041673
50	0x3f0129a5	0.5045417
51	0xbf526aa3	-0.82193965
52	0x3e91f6be	0.28508562
53	0x3f6a40bb	0.9150502
54	0xbf241c77	-0.64105934
55	0xbfa722b3	-1.3057464
56	0x3f105b5d	0.5638941
57	0xbf535d18	-0.82563925
58	0xbfdd9e05	-1.7313849
59	0xbf1655c3	-0.5872461
60	0x3f455ae6	0.77091825
61	0x3eb5f665	0.35539547
62	0xbfb29a34	-1.3953309
63	0xbf365665	-0.7122558
64	0xbf1ba5b9	-0.6079975
65	0x3ecde7d9	0.40215948
66	0x3d372d3c	0.044720873
67	0x3f2c8341	0.6738778
68	0xbf6207d3	-0.8829319
69	0xbf184782	-0.5948411
70	0xbfbff70c	-1.4997268
71	0x3eb20740	0.34771156

l3.bias f4 [9]
0	0x3db7db17	0.08977335
1	0x3f35ac1a	0.7096573
2	0xbe9eb80f	-0.309998
3	0xbe489d46	-0.19591245
4	0xbf0323ca	-0.51226485
5	0xbe576cb9	-0.21037568
6	0xbedaa933	-0.42707214
7	0x3f1fb21a	0.62381136
8	0x3e5d49ac	0.21610135
